results/trpo/swimmer/18_04_06_496/weights_174.npy (npy, 19552 bytes, 1 tensors)

array f4 [4868]
-0.29365182 0.09046288 0.1222128 -0.3413287 0.21634538 0.3073035 -0.09697078 0.8235275
-0.2621657 0.18599737 -0.4701431 -0.34850106 0.1471613 0.032237787 0.13193451 0.38081002
0.71342194 0.2673432 0.5464801 0.7321488 -0.35995483 0.35840866 -0.17885508 -0.029475564
0.005023837 -0.02329387 0.19046226 -0.34202436 -0.20529962 0.062673524 -0.56511015 0.06509318
-0.23611282 0.45765775 -0.06808845 0.37265635 0.56888425 0.20227012 0.22440962 0.10799894
0.36148804 0.015954142 0.32151413 0.078373276 0.14020675 -0.43097672 -0.084370576 0.2524065
0.36517963 0.02258026 -0.22644071 0.16201138 0.32029876 0.84298766 -0.8110821 0.017245602
0.11651096 -0.060410112 -0.7876045 -0.032745056 -0.19284122 0.4904006 -0.13661952 -0.551279
0.6177844 -0.22702982 0.23115659 -0.09067652 -0.107062675 -0.57890624 0.2612818 0.20366944
-0.06992292 -0.009712983 0.24526548 0.16671655 0.37471816 0.35332125 0.23666677 0.029702071
-0.575167 0.4112587 0.26285958 -0.4211724 -0.39002383 0.086273305 0.65834796 0.3028065
-0.015842848 -0.168029 0.22854984 0.4196006 -0.12285667 0.087027766 -0.08823624 -0.69982904
-0.2016634 0.11633064 -0.2428199 0.3331589 0.059591603 -0.24040848 0.3055552 0.6123798
-0.12782969 0.11885823 0.03241321 0.20564064 0.7171552 0.044381425 0.32702792 0.41111875
-0.67544454 0.46973526 -0.4318171 -0.1744653 -0.73671365 0.28962073 0.05058034 -0.35696182
-0.30524004 -0.61772305 0.36145642 -0.46781427 -0.14175853 -0.19751365 -0.10716485 0.69736063
0.32578036 0.44433463 -0.65030724 0.14637072 -0.088727094 0.11869204 0.4395182 0.16966581
-0.95856786 0.2917093 0.39569747 0.43581766 -0.18844117 0.41999647 0.28793877 -0.48256773
-0.20453654 0.5050891 0.006356885 0.47322273 -0.09804402 0.5301511 0.42555752 0.2655566
-0.14079879 0.5633982 0.1308928 0.635156 -0.40478295 -0.7460021 -0.4302262 0.44682163
-0.21968177 0.6198657 -0.5566381 -0.23521791 -0.6935973 0.35412082 -0.7381806 0.39073518
-0.118112005 -1.1729705 0.012526022 -0.5144349 -0.20476769 0.99350274 0.0775022 -0.06347658
-0.2247142 -0.15011363 -0.044263612 -0.109179385 0.0853143 0.2282322 -0.21971087 -0.27536064
-0.26822683 -0.037466157 0.123007774 -0.16880214 0.19850616 0.6879454 0.27139035 0.2028228
-0.54357636 -0.013721785 -0.35637316 0.55359703 -0.06895965 -0.63424844 -0.4906274 -0.25215462
0.0869452 0.50869083 0.2786973 -0.14172924 -0.75427103 -0.032521985 -0.19253282 -0.24392009
-0.0192232 -0.19411986 0.06045102 -0.23251075 0.6208096 -0.031659313 -0.0074648526 0.040746536
0.20172569 0.14836958 0.02294333 -0.40035942 0.62665164 -0.65970594 -0.33458653 0.39427185
0.46826124 -0.26319554 0.27385196 -0.2913536 0.18666233 0.16241029 0.055488694 0.109251395
0.48900884 0.22581725 -0.051600166 -0.54041606 0.2418283 0.10558947 0.34992528 0.1390092
0.812466 -0.6368356 -0.6178023 0.16791011 -0.043331325 0.30095118 0.10168971 -0.02664367
-0.13612309 -0.5062355 -0.025204377 -0.07344271 0.44608793 -0.032288805 -0.09827845 0.0019053386
00000000: 8859 96be 9a44 b93d b44a fa3d a3c2 aebe
00000010: a589 5d3e e256 9d3e 9e98 c6bd b3d2 523f
00000020: 953a 86be 1876 3e3e 99b6 f0be bb6e b2be
00000030: 74b1 163e c50b 043d d719 073e 88f9 c23e
00000040: d2a2 363f 35e1 883e 1fe6 0b3f 1b6e 3b3f
00000050: 004c b8be 5781 b73e c925 37be bd76 f1bc
00000060: 009f a43b c9d2 bebc 8a08 433e d11d afbe
00000070: 103a 52be fa5a 803d 0fab 10bf 934f 853d
00000080: 8fc7 71be 1e52 ea3e f571 8bbd d0cc be3e
00000090: 66a2 113f e61f 4f3e a3cb 653e 8c2e dd3d
000000a0: f614 b93e 43b2 823c 809d a43e 2b82 a03d
000000b0: 5c92 0f3e fba8 dcbe 7bca acbd 6d3b 813e
000000c0: d3f8 ba3e 3dfa b83c 13e0 67be 50e6 253e
000000d0: 33fe a33e 0ace 573f 14a3 4fbf a646 8d3c
000000e0: 4c9d ee3d 9870 77bd 73a0 49bf ae1f 06bd
000000f0: 2b78 45be ca15 fb3e fde5 0bbe 9f20 0dbf
00000100: 1e27 1e3f 817a 68be 50b4 6c3e 9cb4 b9bd
00000110: ad43 dbbd 3333 14bf bac6 853e b98e 503e
00000120: bf33 8fbd 3423 1fbc e026 7b3e beb7 2a3e
00000130: 0fdb bf3e 86e6 b43e c658 723e c251 f33c
00000140: 253e 13bf 8090 d23e 8895 863e e9a3 d7be
00000150: 34b1 c7be 0fb0 b03d 7e89 283f 7409 9b3e
00000160: dcc8 81bc cb0f 2cbe f808 6a3e e4d5 d63e
00000170: 479c fbbd 9d3b b23d 34b5 b4bd ff27 33bf
00000180: da80 4ebe c23e ee3d c8a5 78be ce93 aa3e
00000190: 5316 743d a42d 76be bb71 9c3e ecc4 1c3f
000001a0: c9e5 02be f26b f33d b7c3 043d 7693 523e
000001b0: 7c97 373f 4cc9 353d 3470 a73e 287e d23e
000001c0: efe9 2cbf 2481 f03e 2217 ddbe 08a7 32be
000001d0: 4499 3cbf 2b49 943e 552d 4f3d b3c3 b6be
000001e0: 6c48 9cbe 1923 1ebf d110 b93e 5a85 efbe
000001f0: 2629 11be 0541 4abe 3f79 dbbd 3a86 323f
00000200: afcc a63e d47f e33e 897a 26bf 35e2 153e
00000210: 8db6 b5bd d014 f33d 8808 e13e e0bc 2d3e
00000220: b464 75bf ec5a 953e dc98 ca3e 7e23 df3e
00000230: b9f6 40be c709 d73e b66c 933e 1e13 f7be
00000240: 0772 51be 854d 013f 6b4d d03b 404a f23e
00000250: 4ecb c8bd fcb7 073f ade2 d93e 09f7 873e
00000260: 8f2d 10be dd3a 103f c308 063e 9599 223f
00000270: b63f cfbe fef9 3ebf 9c46 dcbe cec5 e43e
00000280: 42f4 60be 85af 1e3f d67f 0ebf f7dc 70be
00000290: 988f 31bf 534f b53e 67f9 3cbf 710e c83e
000002a0: b5e4 f1bd e623 96bf f239 4d3c 01b2 03bf
000002b0: 9fae 51be 3256 7e3f 79b9 9e3d 0200 82bd
000002c0: 7b1b 66be 63b7 19be c34d 35bd 7199 dfbd
000002d0: 44b9 ae3d b4b5 693e e3fb 60be 12fc 8cbe
000002e0: 0755 89be 1d76 19bd 80eb fb3d 78da 2cbe
000002f0: 3345 4b3e 311d 303f adf3 8a3e c8b0 4f3e
00000300: d227 0bbf 56d1 60bc 8b76 b6be 89b8 0d3f
00000310: b83a 8dbd 1b5e 22bf 8433 fbbe 691a 81be
00000320: 5310 b23d 9039 023f 6ab1 8e3e 7821 11be
00000330: e817 41bf c635 05bd 5327 45be 30c6 79be
00000340: f979 9dbc 5bc7 46be 7d9b 773d 4c17 6ebe
00000350: 61ed 1e3f 32ad 01bd b99b f4bb d7e5 263d
00000360: 2e91 4e3e 32ee 173e a7f3 bb3c e9fb ccbe
00000370: 3e6c 203f 7de2 28bf ed4e abbe 00de c93e
00000380: f0bf ef3e 91c1 86be 5336 8c3e 4d2c 95be
00000390: 6924 3f3e e24e 263e 1d48 633d 32bf df3d
000003a0: 5e5f fa3e a33c 673e b25a 53bd b558 0abf
000003b0: d6a1 773e 4b3f d83d 6829 b33e 6d58 0e3e
000003c0: c6fd 4f3f a807 23bf 4b28 1ebf a1f0 2b3e
000003d0: 307c 31bd 4616 9a3e b242 d03d d343 dabc
000003e0: da63 0bbe a698 01bf 6979 cebc 2269 96bd
000003f0: a365 e43e 4441 04bd 3646 c9bd 8ebc f93a
