results/tuning_network/delta_02/multipoisnpe/bound_6/cartpole_rllab/seed_10/weights_353.npy (npy, 54936 bytes, 1 tensors)

array f4 [13702]
-0.30023143 -0.18750489 -0.60251105 -7.7305045 -0.43928882 -1.5382113 -0.3834998 -4.535003
0.11315554 0.51713973 0.30778548 0.3830637 0.83313614 1.6417704 -0.6808624 0.1499543
0.40007198 -5.098656 0.06174689 -0.6445208 -0.26196152 0.7852477 0.38806996 -0.13118276
-6.5467772 1.2027595 -0.7759545 0.36171266 1.2066683 4.9377584 -1.0833093 -6.4022584
4.582548 0.36425358 -1.4387356 0.68208694 0.89317614 -111.95732 -2.3450003 -0.33246952
-3.4090145 2.0440352 -1.033503 1.138943 -2.239865 -0.23631959 0.51924175 -2.4837074
0.74996734 -0.41161504 -10.859441 -1.7290759 0.06548737 6.049347 1.5850914 0.34159
0.6129354 -0.60563403 0.3608786 0.52071816 -0.15650623 0.819557 -4.4082813 -0.49151918
1.4025626 -0.080211945 -0.43969536 -0.44195616 -0.9608963 5.2241664 0.57818323 -0.5660994
-0.113818154 -0.54364544 1.5082533 26.544043 0.8902726 0.50471246 -0.3152414 -0.730509
-22.115776 0.76358163 -1.8733402 -0.09887155 -0.025038688 -1.1211742 -0.7006442 0.22906606
-2.561806 2.8967535 -1.7884496 -2.0979564 -1.4371492 0.90764856 -0.7468369 0.36697087
-0.7102585 -4.9760294 -1.524395 -0.28269914 0.9778909 -0.02540995 -1.0884216 1.7824227
0.060204443 -0.47294065 -0.8249452 -0.13470356 -30.486864 3.0883093 0.24732521 -1.7197585
0.33658096 -0.9773961 1.3275925 -0.80884004 1.2659409 -1.8487084 -1.1132833 2.3714795
0.24779105 -0.26005405 1.0836426 -0.8041647 -1.0055481 -1.8033192 1.2720721 -2.1128922
-0.19520499 2.4161904 1.6234205 -1.989271 -3.2226741 2.3888133 0.4858665 1.8742121
5.4902344 2.5070968 -2.3097951 0.03187501 -0.08543147 1.7224226 0.71813124 -0.6484042
-0.06551138 -0.17074849 -0.5200504 2.7895532 -1.6159846 -1.5361884 0.4091248 3.3744802
1.2871069 -4.183086 0.41359234 0.07298464 0.870663 -0.5632445 0.9092001 28.789581
0.9257051 0.29824987 0.043764792 -0.6437766 -1.43582 2.7360144 -0.22664875 1.397868
-0.16650477 0.430086 0.41986826 1.7680793 0.5081503 0.9825072 -2.0089476 0.23026897
4.3237824 1.0695708 -1.4201776 -0.100609705 -2.9002051 -1.1254975 0.182635 -0.17504032
0.0022089384 -1.9096868 3.4753702 0.19173259 -1.4713792 0.553485 4.0592556 -0.6193699
-8.136942 -1.4178524 -0.1294895 6.438537 0.6798041 -0.67154354 -0.20688845 0.9757215
1.4703199 -0.3188545 -2.0397 -0.68311703 1.2314999 8.912987 0.44064596 -0.6999218
7.3726506 -0.84129035 -0.6850915 -1.630149 0.39833918 0.35630098 -18.37837 0.84798056
-1.1074278 2.0691295 -0.35181257 1.5205541 -0.5240985 -7.248123 -3.9274075 1.5941733
1.4615883 -3.2590573 -1.0356953 -2.3407784 -2.5616972 1.220249 -3.1159458 0.72917336
-1.46302 -0.40284744 2.5110414 1.2279726 2.0186973 0.49486512 0.61378783 -2.2960744
1.380359 -1.1264825 0.79923004 -9.750881 0.60191137 -0.39893803 -0.15657489 -0.27942896
0.7644561 5.310947 -0.38702366 -0.8042952 0.3147595 2.326833 -0.6233012 3.2494123
00000000: efb7 99be 4801 40be 2a3e 1abf 4b60 f7c0
00000010: 77ea e0be 1ce4 c4bf 165a c4be bf1e 91c0
00000020: 17be e73d 4563 043f 0f96 9d3e ed20 c43e
00000030: 6948 553f 8825 d23f 004d 2ebf 9f8d 193e
00000040: 3cd6 cc3e 3128 a3c0 4fea 7c3d 51ff 24bf
00000050: d21f 86be fe05 493f 1bb1 c63e c654 06be
00000060: 337f d1c0 06f4 993f f4a4 46bf 6732 b93e
00000070: 1b74 9a3f 1e02 9e40 e1a9 8abf 4ddf ccc0
00000080: 3ca4 9240 727f ba3e 7d28 b8bf 409d 2e3f
00000090: 31a7 643f 26ea dfc2 7c14 16c0 7239 aabe
000000a0: 4b2d 5ac0 79d1 0240 d449 84bf e2c8 913f
000000b0: f359 0fc0 c3fd 71be 07ed 043f 10f5 1ec0
000000c0: dcfd 3f3f 35bf d2be 45c0 2dc1 5c52 ddbf
000000d0: 3e1e 863d 4094 c140 46e4 ca3f e2e4 ae3e
000000e0: 56e9 1c3f d50a 1bbf 14c5 b83e c94d 053f
000000f0: 2b43 20be 7dce 513f a410 8dc0 67a8 fbbe
00000100: 2c87 b33f 2946 a4bd c01f e1be 1448 e2be
00000110: 4dfd 75bf 5f2c a740 d103 143f e4eb 10bf
00000120: 7e19 e9bd 592c 0bbf 720e c13f 335a d441
00000130: e8e8 633f d634 013f 5267 a1be a302 3bbf
00000140: 1ced b0c1 167a 433f 9dc9 efbf 2b7d cabd
00000150: ef1d cdbc a382 8fbf 6b5d 33bf 4b90 6a3e
00000160: a1f4 23c0 6964 3940 ebeb e4bf eb44 06c0
00000170: 81f4 b7bf a85b 683f b430 3fbf 9be3 bb3e
00000180: 80d3 35bf a23b 9fc0 601f c3bf f1bd 90be
00000190: 0f57 7a3f 8728 d0bc 6651 8bbf 6d26 e43f
000001a0: ef98 763d 4725 f2be 9c2f 53bf bbef 09be
000001b0: 19e5 f3c1 dca6 4540 d242 7d3e 0c21 dcbf
000001c0: 5754 ac3e a136 7abf 8dee a93f 2410 4fbf
000001d0: 5a0a a23f 7aa2 ecbf 1180 8ebf 52c6 1740
000001e0: f0bc 7d3e ce25 85be cdb4 8a3f bddd 4dbf
000001f0: cdb5 80bf 2ad3 e6bf 42d3 a23f a039 07c0
00000200: d1e3 47be dda2 1a40 3ecc cf3f 6fa0 febf
00000210: 4b40 4ec0 51e2 1840 7ec3 f83e 2fe6 ef3f
00000220: 00b0 af40 4674 2040 afd3 13c0 5f8f 023d
00000230: b2f6 aebd 5878 dc3f 73d7 373f d1fd 25bf
00000240: d52a 86bd b1d8 2ebe 0622 05bf 0a88 3240
00000250: 95d8 cebf d2a1 c4bf ce78 d13e 7cf7 5740
00000260: ebbf a43f d7db 85c0 60c2 d33e f978 953d
00000270: c5e3 5e3f cb30 10bf 56c1 683f 1051 e641
00000280: 02fb 6c3f 35b4 983e b642 333d 8bce 24bf
00000290: f3c8 b7bf dc1a 2f40 9c16 68be 57ed b23f
000002a0: 3a80 2abe 3b34 dc3e f9f8 d63e 6c50 e23f
000002b0: 2316 023f 9885 7b3f 9992 00c0 a1cb 6b3e
000002c0: 6d5c 8a40 b2e7 883f 61c8 b5bf 760c cebd
000002d0: f69c 39c0 4d10 90bf ab04 3b3e c53d 33be
000002e0: d6c3 103b 9e70 f4bf 776c 5e40 8c55 443e
000002f0: 2756 bcbf 31b1 0d3f 6ce5 8140 078f 1ebf
00000300: ea30 02c1 307c b5bf e598 04be 7f08 ce40
00000310: a407 2e3f 47ea 2bbf 91da 53be e2c8 793f
00000320: 7133 bc3f e640 a3be 728a 02c0 c2e0 2ebf
00000330: caa1 9d3f 989b 0e41 599c e13e 132e 33bf
00000340: c1ec eb40 ce5e 57bf 2862 2fbf b9a8 d0bf
00000350: 1df3 cb3e 156d b63e e706 93c1 4115 593f
00000360: 32c0 8dbf 9e6c 0440 c720 b4be 84a1 c23f
00000370: 522b 06bf a0f0 e7c0 a55a 7bc0 df0d cc3f
00000380: 5315 bb3f 6594 50c0 aa91 84bf 50cf 15c0
00000390: d9f2 23c0 1f31 9c3f a86b 47c0 1bab 3a3f
000003a0: 3d44 bbbf 0542 cebe e7b4 2040 352e 9d3f
000003b0: 5632 0140 f65e fd3e 3321 1d3f e2f2 12c0
000003c0: 9baf b03f 9430 90bf 579a 4c3f 9c03 1cc1
000003d0: dd16 1a3f 9b41 ccbe 2b55 20be 5011 8fbe
000003e0: 65b3 433f 47f3 a940 f727 c6be 4ae6 4dbf
000003f0: 2828 a13e d5ea 1440 ab90 1fbf 5ff6 4f40
