results/tuning_network/delta_07/multipoisnpe/bound_6/cartpole_rllab/seed_10/weights_245.npy (npy, 54936 bytes, 1 tensors)

array f4 [13702]
00000000: edcb a640 d1ed 8f3f 971e 20bf a4e0 8cbe
00000010: 9ee4 0e41 227a 8e42 b41b 13c0 5daf 1b3f
00000020: 9852 a541 2d49 1940 da3d 1f3e c814 1ac0
00000030: 3d2d da3e f700 8340 011b 443e f90e 89bf
00000040: 849e e33f 789d f641 be76 57c1 da80 f03f
00000050: a280 983f 822b 9ac0 b6e0 3fc0 79d7 17c4
00000060: d79c 55bc 0820 babe 3d9c 3a41 d611 1dc3
00000070: e7cc 93bf fa76 0ec1 a537 0540 d9cc f0be
00000080: e4e9 2041 b9c6 ca3f bff5 46be 55f2 91bf
00000090: c47b bf3e a670 86bf 7446 d240 9f57 ba40
000000a0: 0ef0 7d3f 2f2c 8dbf bcc9 20c2 6195 9cbf
000000b0: ac4a e3be bb70 fd3e d8f5 39c0 851c 883f
000000c0: bad8 913e 9733 fbbf e461 19c0 1708 7bbe
000000d0: 9ed8 e941 2d8d 1e40 e018 7c3f b406 3641
000000e0: 9d32 acc0 4852 053e d0f7 54bf 7cc9 49c0
000000f0: 1ebe 943f 5523 acbf ed80 20be 1841 9a3f
00000100: fdef bcbd 9197 83c0 cd29 df43 1bbb 1d3f
00000110: 2d17 f63e 7804 10c0 04ec 583f 58a0 adc1
00000120: f2cd 9d40 1ac7 14c1 113b 3741 98f5 5642
00000130: 1144 42c1 1539 e9be 0eb9 49c1 18b7 1641
00000140: a198 3a3f a4a3 cbc0 4215 9fbe bc9c a6bf
00000150: 2b59 b53f 4f2e b440 5038 853f 4281 733e
00000160: cc93 1840 4bca 583f c64a 0c3e b041 063f
00000170: ccdc fabd f9c3 2ebf 0351 ac40 7a69 92bf
00000180: 21ff 0d40 6e6d ab42 67ba 4ac2 8901 56c0
00000190: fb99 f83e bde1 6c3e 4cd6 c6c0 056c 5a40
000001a0: 8209 ed3e c39a 753e c5a0 47c0 085e 663f
000001b0: 432d 6b3f db41 1940 6a1a a040 6487 033f
000001c0: dc38 e542 b40d f8c0 f8b0 5fbf bc45 a6bf
000001d0: 4efb 1440 0b0b 3cbf 4fc1 6dbf 675b 0fbf
000001e0: e804 42c0 0ec1 17bf dbb6 1143 6248 0fc0
000001f0: 2f5c 3c3e fb0e 55c2 f297 8740 bc8a ee3e
00000200: 153c ffbf 71e8 d2bf 6af6 77c1 8d2b f33e
00000210: 79a6 77c2 6f66 d73e 7a74 2840 6a4b 5fbf
00000220: 5740 3a3f a8d8 7a3d f71e 4fc0 c284 2c40
00000230: e183 5641 d331 283f 5da5 9ebf a474 90be
00000240: e802 0240 2f3a f7bf 925f f8c0 2dff 89bf
00000250: 611d 37c1 819e 1441 b3dd 6440 8edb 0fc0
00000260: 7fd0 223d ccb9 a141 cbca 87bf b4c6 8840
00000270: 706c 17c0 94f4 603e e43b 89c0 7a0f 3540
00000280: f33c a4bf 594e 6bc1 99b0 1041 d7ce a1bf
00000290: 96db d2be f4d4 7bbd 720e 21c1 87d3 963f
000002a0: fc9d 903f 44a5 cfbf 4792 2240 c592 6240
000002b0: 7af6 6141 8352 0abf 7553 8040 e116 9f3e
000002c0: 0f08 3243 de71 5041 330c 0942 d1e7 673f
000002d0: 6c61 ebc0 a8bd 373f 7eb2 a1be 0094 49bf
000002e0: 71a2 a240 5f99 ca3e 29c7 b641 370d d241
000002f0: f16b 3240 8d29 ac3f f91c d9be 892e 9140
00000300: b5e7 f5be 15e4 a03f 4386 723f d237 3dc0
00000310: 3fb4 afbf ea9f adc2 aef7 1440 7a30 8040
00000320: 46c8 1fbf 54b4 48be a941 abbf 0b16 ae3e
00000330: d122 0141 783e 6240 7432 a1c0 60bf b6c1
00000340: 759c 14c0 8d77 8ec1 0e0f 50bf d274 66c0
00000350: 8229 8bbf 745c 0dc1 d8bd ffbe 2d7e 3dbe
00000360: cd03 7ebf dbd6 88be b617 a0be 60b1 ab40
00000370: 45ae 91c0 8744 86c0 bcbc b441 8369 b8c0
00000380: 015f d8c0 992b bb3f 6cd6 d13f 150c ca3f
00000390: 242b 4d40 7131 a141 2dbd bec3 4289 86c4
000003a0: dbca 7541 6373 a140 86aa 21c0 80b2 0240
000003b0: 5148 fc40 24b0 303f a842 3ec0 b2ae c43f
000003c0: 532a d7c1 79be 93c5 c290 bcbf c490 e63e
000003d0: 539c 2dc0 0a4b eec0 d614 e13e 09b9 e03d
000003e0: 596a 543e a3fd b73f 0faa f63e 238d 9141
000003f0: 07f0 39bf bc3c a63f 86d0 2c41 b96b 2fbf
5.2123933 1.1244451 -0.62546676 -0.27515137 8.930815 71.23854 -2.2985659 0.6081446
20.665329 2.3950913 0.15550938 -2.4075184 0.4261264 4.093868 0.19150926 -1.0707694
1.778275 30.826889 -13.46649 1.8789322 1.1914256 -4.817811 -2.9980903 -607.36676
-0.013037882 -0.36352563 11.663144 -157.06967 -1.1546906 -8.904047 2.0815213 -0.47031286
10.057102 1.5841895 -0.19429682 -1.1402079 0.37399113 -1.0503128 6.5711 5.823196
0.9919442 -1.1029109 -40.197006 -1.2233087 -0.44392908 0.4950007 -2.90563 1.0633703
0.28485662 -1.9625119 -2.3965998 -0.24514805 29.23077 2.4773667 0.98475456 11.3766365
-5.3811784 0.13019669 -0.8319063 -3.1529226 1.1620519 -1.3448282 -0.15674181 1.2051115
-0.09225462 -4.1122518 446.32657 0.61613625 0.48064557 -2.2502728 0.8473513 -21.703293
4.93139 -9.298609 11.4519205 53.739838 -12.141618 -0.45551363 -12.607679 9.419701
0.72889143 -6.3637257 -0.31070906 -1.3016582 1.4167837 5.630653 1.040781 0.23779777
2.3840208 0.84683675 0.13700399 0.5244398 -0.12249145 -0.6826778 5.384889 -1.1438439
2.2186968 85.71373 -50.682034 -3.3438437 0.48554978 0.23132987 -6.2136593 3.412843
0.46296316 0.23984818 -3.1191876 0.8998723 0.9186594 2.3946445 5.0032244 0.51378465
114.61105 -7.7516727 -0.8737941 -1.2990031 2.3278384 -0.7345435 -0.9287309 -0.55998844
-3.0315495 -0.59278953 145.71428 -2.238793 0.1839454 -53.26463 4.237298 0.4659022
-1.994021 -1.6477185 -15.49766 0.47494164 -61.91257 0.42070338 2.6321092 -0.8722445
0.72754425 0.061241776 -3.236265 2.695603 13.407197 0.65701026 -1.2394215 -0.2821399
2.0314274 -1.9314631 -7.7616663 -1.0780998 -11.444673 9.288697 3.5760314 -2.2477756
0.03974962 20.215721 -1.0608763 4.2742558 -2.3659935 0.21968299 -4.288561 2.8290696
-1.28311 -14.706628 9.043115 -1.2641248 -0.41183156 -0.061482385 -10.066027 1.1783303
1.1298213 -1.622231 2.540178 3.540208 14.122675 -0.5403215 4.0101876 0.31072143
178.03148 13.0278 34.261913 0.905881 -7.3556423 0.7177377 -0.3158149 -0.78741455
5.0823293 0.39570138 22.847246 26.256453 2.7878382 1.345018 -0.42404917 4.5369306
-0.4802834 1.2569605 0.9473612 -2.956532 -1.3726882 -86.81233 2.3276172 4.0059175
-0.6241497 -0.1960004 -1.3379413 0.34001192 8.071 3.5350628 -5.037409 -22.843445
-2.3220494 -17.808374 -0.8127297 -3.6008801 -1.0872042 -8.835072 -0.49949527 -0.18505163
-0.9922455 -0.26726422 -0.3126809 5.365402 -4.552523 -4.195865 22.592155 -5.76288
-6.761597 1.462268 1.6393561 1.5784937 3.205758 20.149141 -381.47794 -1076.2893
15.362025 5.0453353 -2.526033 2.0421448 7.8838277 0.6901877 -2.9728184 1.5365813
-26.895666 -4727.809 -1.4731677 0.45032322 -2.7126663 -7.44666 0.4396121 0.10972793
0.20743693 1.4374279 0.4817662 18.193914 -0.7263188 1.2987285 10.800909 -0.68523747
