results/trpo/Swimmer/seed_315/weights_57.npy (npy, 19552 bytes, 1 tensors)

array f4 [4868]
000000 2e 88 c7 bc 7a 9b e8 3e ae fc 97 be aa eb 8e be
       -0.024356928 0.4543112 -0.29684967 -0.27914172
000010 06 fc 51 3e ba 96 2b be e4 63 0a bf 90 6f d4 be
       0.20506296 -0.16756716 -0.5405867 -0.41491365
000020 f8 84 31 bd ea 50 e5 3e d4 ef 22 3f 04 d5 99 3e
       -0.0433397 0.44788295 0.636472 0.3004533
000030 ef d1 16 bf 65 1a 78 3e 71 af 9b be a6 c2 de be
       -0.58914083 0.24228819 -0.3040729 -0.4350788
000040 4a de 24 3f 30 e1 28 bf 0d 8e 92 3e 0a 73 11 bf
       0.64401686 -0.6596861 0.28624 -0.5681616
000050 02 be 27 bf 00 ba 58 bd ab f8 3a 3e 14 89 ec 3e
       -0.65524304 -0.05291176 0.18258922 0.46198332
000060 03 4d 84 bd a3 78 0e 3e 9a bf 43 be 6a 98 33 be
       -0.06460001 0.13913207 -0.19116059 -0.1753861
000070 f3 bd 14 bf 09 e0 c2 be 91 f6 e6 bd 4f 17 93 be
       -0.5810234 -0.3806155 -0.112774976 -0.2872872
000080 17 3e f3 be e4 2f 9c 3e f4 af c0 be 22 68 f3 be
       -0.47508308 0.30505288 -0.37634242 -0.47540385
000090 d9 0b 0c 3f cd 7f 6a be fb 4c eb be 25 f7 8d be
       0.5470558 -0.22900315 -0.4595717 -0.2772762
0000a0 1f ee 92 3e cd 92 c4 be 53 53 0e bf 69 4b 14 be
       0.28697297 -0.3839325 -0.5559589 -0.14481892
0000b0 1b 31 56 3e 13 9d ff be d6 0c e6 3d 85 c7 97 3e
       0.2091717 -0.49924526 0.11232917 0.2964441
0000c0 e1 b0 c6 be 4f c7 3a be 07 6a de be 6b c0 96 3e
       -0.38806823 -0.18240093 -0.43440267 0.29443678
0000d0 db d3 68 be f7 e5 2b bd 90 a3 30 3e ac 9b a9 be
       -0.22737066 -0.04196736 0.17249894 -0.3312658
0000e0 61 2a ea 3e c3 80 1f bf be f0 7d be 89 9e c2 3e
       0.45735458 -0.6230585 -0.24798867 0.38011578
0000f0 98 d6 1a 3f 3a 18 16 bf a4 15 4c be fd a3 b0 3e
       0.60483694 -0.58630717 -0.1993013 0.34500113
000100 df d8 81 3c f8 80 3b 3f 62 a5 5a 3d 04 9d 82 3e
       0.015850483 0.73243666 0.053380378 0.25510418
000110 13 6a d7 3e 8e b1 e5 3d 26 3e 50 be 66 fd 02 3f
       0.42073116 0.112155065 -0.20336208 0.51167905
000120 3e 9d 3c be fb db ff 3e ca b7 f4 bc c0 00 14 be
       -0.18419358 0.4997252 -0.029872794 -0.14453411
000130 c3 1f 13 be ac 20 6f be d3 58 db be b4 8e 17 be
       -0.14367585 -0.23352307 -0.42841205 -0.1480053
000140 36 0a ca 3c 5e 94 04 3d 08 68 35 bf 59 13 a0 bd
       0.024663072 0.032368056 -0.70861864 -0.0781619
000150 b3 58 0b bf 5b b0 69 bd 77 59 5c 3f bc 06 02 bd
       -0.5443222 -0.05705295 0.8607401 -0.031744704
000160 1e 26 ed 3e a8 40 8f 3e d4 79 a5 3e 83 52 b9 be
       0.46318144 0.27979016 0.3231951 -0.36195764
000170 c2 75 9f bd 2d 00 07 be 88 87 c4 be 9b 06 81 3e
       -0.077861324 -0.13183661 -0.38384652 0.25200352
000180 af d8 c1 be ef 0c b3 be 9d 0e 3d bf 6f 1e c7 3d
       -0.3786063 -0.34970805 -0.73850423 0.097226016
000190 fb 24 07 bf 62 3f 70 bf 74 06 8e 3e 28 5b d1 3d
       -0.527908 -0.93846714 0.27739298 0.10222465
0001a0 4e a3 0e bf 7a 63 42 3e 99 cc 0f 3f 18 69 df be
       -0.55717933 0.1898326 0.56171566 -0.43634868
0001b0 ab d7 73 3e a5 e7 0d 3d 6e 9e 3a 3f f2 05 de be
       0.2381274 0.03464474 0.72897995 -0.4336391
0001c0 56 4c b9 bd 02 7a 25 be 56 2b e9 3d 54 a5 2d be
       -0.09047763 -0.16159824 0.11385219 -0.16957599
0001d0 f5 9e 01 3d a8 45 3b be e9 76 e2 bd aa 34 2d 3d
       0.031645734 -0.1828829 -0.110578366 0.042286552
0001e0 d5 45 0e 3f 76 6f 05 bd 1c 10 10 bd da 96 6d be
       0.55575305 -0.032577 -0.035171613 -0.23202077
0001f0 e7 76 32 bf f0 93 50 3e b0 b4 27 bf c0 19 fd 3e
       -0.6971268 0.20368934 -0.6551008 0.49433708
000200 7a 3c 0c 3f dd 4f 33 be 23 4e 4e 3e 40 bb 3a bf
       0.5477978 -0.17510934 0.20146994 -0.7294197
000210 7e 59 fa 3e ec db 10 bf ef 58 fc be c1 a7 81 be
       0.48896402 -0.56585574 -0.492866 -0.253233
000220 25 71 ad 3e 34 d6 f0 bd 47 68 4e be 77 d1 69 3e
       0.33875385 -0.11759606 -0.20156966 0.22833811
000230 17 7b 13 3f 22 35 33 3f e2 1b 25 bd 2f bb 86 3b
       0.57609695 0.7000295 -0.040309794 0.0041116695
000240 65 fa 7b be 1c 54 7c bf 19 a6 e6 3e 39 d9 07 be
       -0.24607237 -0.9856584 0.45048597 -0.13266458
000250 19 d7 2e be 20 1b 86 3e 8a 57 ba be 72 51 84 3e
       -0.1707424 0.2619257 -0.36394912 0.25843388
000260 a2 66 3b 3e 14 2d 34 3e f8 db a1 3e 64 29 1d 3e
       0.1830087 0.17595321 0.31613135 0.1534782
000270 bb 59 46 3e 6b fa 1e be 54 69 ea 3e 24 0d 6d 3e
       0.19370167 -0.15525214 0.45783484 0.23149544
000280 40 94 c9 3d 04 03 d6 3e ad 63 c2 3e 69 63 06 bf
       0.098427296 0.41799176 0.37966672 -0.5249544
000290 4f 0a c5 be 52 93 42 3e a3 93 a7 3e 9c 53 b1 be
       -0.38484427 0.1900151 0.32729825 -0.346341
0002a0 2c 1f bd be 6d 76 0c 3f 40 2b aa 3e e8 52 46 be
       -0.36937845 0.54868203 0.33236122 -0.19367564
0002b0 fd 85 15 3f 42 ad eb bd ce 6f 80 be 5f b2 55 be
       0.58407575 -0.11507656 -0.250853 -0.20868824
0002c0 49 95 73 be 40 72 fe be b2 83 be 3d 75 6e e8 bd
       -0.23787417 -0.4969654 0.09302463 -0.11349193
0002d0 c8 43 19 3d d2 bc 40 3e 6b 4f bb 3d c6 30 36 3f
       0.037418157 0.18822029 0.09146007 0.7116817
0002e0 76 32 e5 bc 44 66 06 3f 93 2b 94 3e 98 e9 30 bf
       -0.027978163 0.52499795 0.28939494 -0.69106436
0002f0 36 84 d6 bc d5 56 1e 3f d6 11 39 bf 25 eb 8a bf
       -0.02618609 0.61851245 -0.7229284 -1.085301
000300 96 d1 0a bd 7e 39 c3 3e cc 5c d9 be 32 97 a7 bd
       -0.033891283 0.381298 -0.4245361 -0.08183135
000310 8e 8b bd bd 27 f2 87 be 5a 99 15 be ea d0 d6 bd
       -0.092551336 -0.26551935 -0.1460928 -0.10489066
000320 c4 6a 03 bf 4c 55 60 3e 4e f1 98 3e 7c b5 29 bf
       -0.51334786 0.21907538 0.298716 -0.6629255
000330 11 a1 c8 3d 3c b0 bc bc 29 2b fa 3c f0 b0 d2 3e
       0.09796346 -0.023033254 0.030538158 0.41150618
000340 0f c7 2d 3e ae f0 fc bd 17 e0 e1 bd d6 36 87 be
       0.16970466 -0.123505935 -0.1102907 -0.26409024
000350 1d 78 08 3f da 40 3e bd 2e cd 9f be c3 cd 66 3e
       0.5330828 -0.046448566 -0.31211227 0.2253943
000360 f3 52 12 3f 21 5b 01 3f 44 d0 29 bf 74 4b 28 bf
       0.5715782 0.50529677 -0.66333413 -0.6574013
000370 58 6c 21 bf ed 21 54 bf 7d 2e 89 3e df b4 1c 3e
       -0.63055944 -0.82864267 0.2679328 0.15303372
000380 c7 14 c4 be b9 fd 02 bf 0a 14 0c 3e e7 15 2b be
       -0.38297102 -0.511684 0.1367952 -0.16707574
000390 ca 42 e9 3d 08 2f f0 bd 09 fc ad bd aa 08 44 3f
       0.11389692 -0.117277205 -0.084953375 0.7657572
0003a0 59 97 f6 3c d1 5e 4d 3e 8d 15 74 be c7 90 d0 3d
       0.030101465 0.20055701 -0.23836346 0.10183864
0003b0 e5 ed 1b 3e f3 0c 17 be 0b d0 40 bd 58 5f 7a be
       0.15227468 -0.14751033 -0.047073405 -0.24450433
0003c0 4f b5 84 bd 43 5a 75 3e bc 8a af bc 2f 95 4a 3d
       -0.06479894 0.23960213 -0.021428458 0.04945868
0003d0 b5 c1 8a 3d b9 53 c5 be 3a ec 95 3e 3b 89 25 be
       0.06775228 -0.38540438 0.2928179 -0.1616563
0003e0 9c b1 38 be 6f bf 27 bc cd 24 6b be 16 da 6d bc
       -0.18036503 -0.010238512 -0.22963257 -0.014517328
0003f0 32 3d e1 bd 04 d6 b3 be 83 5d 0b 3e f5 77 c6 bd
       -0.10998 -0.35124218 0.1360989 -0.09690849
