results/tuning_network/cartpole/delta_05/seed_10/weights_434.npy (npy, 54936 bytes, 1 tensors)

array f4 [13702]
0.92504656 0.5517686 -2.8338172 -1.1441733 -1.1732086 9.335665 2.4455717 -0.8781316
-0.30740726 -0.055360395 -0.56248945 -5.634621 106.51561 -20.898983 -192.91458 -13.325597
1.4117001 1.9076661 -0.037596665 -0.90948004 -1.3686111 4.494927 6.867355 3.7966259
0.36752176 0.77634734 1.2398767 2.6226726 -3.443472 -2.583089 -4.5301194 -6.955959
0.8269199 -1.4266028 -4.3536305 -0.5412696 -0.9496455 -12.29068 -1.7009158 7.253609
1.281091 7.4372673 4.597249 1.8161534 17.762577 28.007496 382.10312 -8.489855
-13727.702 1.6604825 210.64154 0.94888043 0.58667755 -0.93821985 0.029299831 0.96022606
14.077236 -0.019310445 40.739124 0.071726084 2.3586338 -65.62939 -4.109998 -1.0261463
6.717919 -4.358876 596.0384 1.0488905 -2.056177 -2.7439954 5.414733 0.42008185
-4.734119 -5.3976912 7.156015 -5.5091114 0.67293143 -2.2351992 1.7492537 0.97145396
1.5560037 1.1405076 0.69635946 -0.6656432 1.5430979 0.54379815 -0.09407132 0.44950372
-4.058964 -15.122817 -1.1241606 2.441918 1.6277747 -0.8852995 -9.912726 1.014832
0.92309994 -0.45479706 -4.064291 3.9226418 2.068549 0.18335998 0.63945186 1.739697
-1.8023752 -0.67824537 0.8446205 7.9908304 2.3930943 -0.95278364 -3.0174391 -4.4996295
28.188559 5.2732887 0.08645963 0.78062856 -22714.043 408.13562 11.643068 -95.36823
-5.5973554 -0.8508712 1.8281238 -1.0509714 2.2120793 1.7800995 3.4057844 29.393766
-0.2499626 -14.065917 0.47151995 -3.8314905 1.646935 -0.5589256 1.3961953 -1.4168111
108.62733 5.1551642 1.157479 -10.140274 0.21849485 3.0456986 -1.3936995 12.021897
4.0234275 12.573758 -0.41963777 2.3059113 -1.1415594 3.8195045 -4.485595 0.02711083
1.493624 -0.68056697 -3.0454643 -36.488163 -0.9206703 -3.5189965 5.066821 2.5547729
0.026558831 5.2031693 0.14373589 0.33494976 -0.79158163 0.21588002 0.20053385 -16.017662
-9.786817 -1.0420045 5.802297 -1.967883 -0.2831871 -1.7529536 -2.3182943 6.0087047
-1.1898087 -0.20308311 4.0714397 0.27005795 -7.3430147 -2.0101614 0.3572731 -6.4787726
-7.7072616 83.19456 -6.048562 -1.051068 -3.5715125 -0.8287383 6.6249695 -4.800875
-25.102318 2.8762138 -1.5994811 -1.5415585 2.2626624 1.8203834 5.3097053 -4.791384
-3.1778417 0.26164114 -3.1942015 -1.6481192 0.09514965 -3.6600397 5.283069 -2.424465
-2.1635978 -1.4992304 -2604.245 1.5341015 0.7434826 0.6023806 -7.9931293 0.18029286
1.2852075 0.608029 2.3788488 1.353418 4.8306317 2.135255 17.643238 11.148538
-12.233778 -69.60876 -2.930136 -2.2515397 0.79924434 -4.793458 55.92006 0.33839345
0.34618577 0.1414023 -1.9437762 2.493383 4.77556 0.7411652 5.117928 -0.6464988
20.741747 -0.19850056 -0.71950895 -0.8662977 6.526997 0.08233269 -13.425944 -6.3157783
-5.030134 3.0959558 -100.002975 4.9763412 -1.545336 5.1660256 -39.0244 -2.6276612
00000000: dacf 6c3f b540 0d3f 435d 35c0 4574 92bf
00000010: b32b 96bf e25e 1541 3f84 1c40 3ccd 60bf
00000020: 7c64 9dbe 95c1 62bd 4fff 0fbf d14e b4c0
00000030: fe07 d542 1e31 a7c1 22ea 40c3 a535 55c1
00000040: 97b2 b43f 672e f43f f6fe 19bd afd3 68bf
00000050: a62e afbf 71d6 8f40 5fc1 db40 ebfb 7240
00000060: d02b bc3e b3be 463f 48b4 9e3f ded9 2740
00000070: d861 5cc0 5551 25c0 bdf6 90c0 3797 dec0
00000080: 06b1 533f ec9a b6bf f150 8bc0 a590 0abf
00000090: f81b 73bf a0a6 44c1 9cb7 d9bf 911d e840
000000a0: cafa a33f 18fe ed40 aa1c 9340 b777 e83f
000000b0: c219 8e41 5a0f e041 330d bf43 72d6 07c1
000000c0: cf7e 56c6 b18a d43f 3ca4 5243 d4e9 723f
000000d0: 8030 163f 2d2f 70bf 3306 f03c 60d1 753f
000000e0: 5c3c 6141 f030 9ebc ddf4 2242 20e5 923d
000000f0: dbf3 1640 3f42 83c2 1b85 83c0 c358 83bf
00000100: 31f9 d640 ea7b 8bc0 7502 1544 0b42 863f
00000110: 6798 03c0 9f9d 2fc0 7e45 ad40 f814 d73e
00000120: e77d 97c0 e3b9 acc0 13fe e440 a44a b0c0
00000130: 3c45 2c3f 810d 0fc0 8ce7 df3f 35b1 783f
00000140: 212b c73f 27fc 913f 9d44 323f 9867 2abf
00000150: 3b84 c53f 5b36 0b3f 77a8 c0bd 5a25 e63e
00000160: 08e3 81c0 0ff7 71c1 7fe4 8fbf 6248 1c40
00000170: ec5a d03f fda2 62bf 879a 1ec1 04e6 813f
00000180: 4750 6c3f 29db e8be ac0e 82c0 900c 7b40
00000190: 1b63 0440 b8c2 3b3e 1eb3 233f 64ae de3f
000001a0: 3bb4 e6bf 7da1 2dbf 0d39 583f e2b4 ff40
000001b0: 7528 1940 a1e9 73bf b91d 41c0 f7fc 8fc0
000001c0: 2b82 e141 c8be a840 bf11 b13d 46d7 473f
000001d0: 1674 b1c6 5c11 cc43 024a 3a41 89bc bec2
000001e0: 891d b3c0 b2d2 59bf f6ff e93f 3b86 86bf
000001f0: b592 0d40 4dda e33f 5ff8 5940 6f26 eb41
00000200: 32f6 7fbe ff0d 61c1 106b f13e 2437 75c0
00000210: c4ce d23f c015 0fbf 87b6 b23f 115a b5bf
00000220: 3141 d942 1bf7 a440 4628 943f 903e 22c1
00000230: 1dbd 5f3e baec 4240 bf64 b2bf b159 4041
00000240: ebbf 8040 1d2e 4941 c3da d6be 0d94 1340
00000250: 9e1e 92bf c372 7440 ff89 8fc0 8817 de3c
00000260: 122f bf3f a339 2ebf e3e8 42c0 e1f3 11c2
00000270: 0cb1 6bbf 3d37 61c0 6623 a240 6681 2340
00000280: e891 d93c 5d80 a640 802f 133e 897e ab3e
00000290: 18a5 4abf a70f 5d3e bf58 4d3e 2c24 80c1
000002a0: cd96 1cc1 6760 85bf 6bac b940 97e3 fbbf
000002b0: e6fd 90be c960 e0bf ef5e 14c0 4f47 c040
000002c0: a74b 98bf 05f5 4fbe 3c49 8240 0945 8a3e
000002d0: faf9 eac0 7ca6 00c0 80ec b63e 1b52 cfc0
000002e0: e3a1 f6c0 9d63 a642 d28d c1c0 6589 86bf
000002f0: a993 64c0 3128 54bf c0ff d340 c5a0 99c0
00000300: 8cd1 c8c1 e313 3840 ccbb ccbf ca51 c5bf
00000310: 76cf 1040 5302 e93f 1be9 a940 0553 99c0
00000320: c261 4bc0 d4f5 853e cc6d 4cc0 92f5 d2bf
00000330: d2dd c23d 173e 6ac0 e70e a940 6f2a 1bc0
00000340: 6378 0ac0 c8e6 bfbf ecc3 22c5 705d c43f
00000350: e054 3e3f 9d35 1a3f b7c7 ffc0 b19e 383e
00000360: ae81 a43f caa7 1b3f 0f3f 1840 cd3c ad3f
00000370: 8994 9a40 05a8 0840 5a25 8d41 6960 3241
00000380: 8ebd 43c1 af37 8bc2 5987 3bc0 3a19 10c0
00000390: 479b 4c3f 0264 99c0 24ae 5f42 e841 ad3e
000003a0: 433f b13e c4cb 103e a9cd f8bf 9693 1f40
000003b0: 63d1 9840 01bd 3d3f 11c6 a340 f280 25bf
000003c0: 19ef a541 bb43 4bbe bd31 38bf b0c5 5dbf
000003d0: 29dd d040 0b9e a83d abd0 56c1 db1a cac0
000003e0: dcf6 a0c0 2424 4640 8601 c8c2 303e 9f40
000003f0: 92cd c5bf 1550 a540 fc18 1cc2 9a2b 28c0
