results/trpo/old/mlp/30_3_0/unbiased/weights_482.npy (npy, 19552 bytes, 1 tensors)

array f4 [4868]
00000000: 320c 9fbe 452c 80be 5482 25bf 2e41 b53e
00000010: 6c27 473f a4eb e03d e69b ca3e 2d37 673e
00000020: 2f4e ff3d 68ba 81be c957 993e 63be e8be
00000030: 2f5f d4be dd6e 063e 2620 0c3d 9a8f e9be
00000040: 4e6c 8ebe b71b 36be 6a61 aa3e 429b c83d
00000050: 8aa0 1fbe f0aa eebe 7f31 8fbd cfa3 f33e
00000060: 416d ec3e 0acb 393e 20e2 3f3f 766d 993e
00000070: 429d 10bf eef7 293e 8e67 94bd 3798 4dbe
00000080: 7726 1a3f f50b e13e 82f0 9bbe f81c b6bd
00000090: db3d 463e 51ae c8be d622 13bf 170b 32be
000000a0: a748 12bf b2ee 13bf 8681 6f3e ae55 193f
000000b0: fbbe 873e b1b0 50bd 91d3 b83d a138 2ebe
000000c0: 0dfa 003d 647c 6e3d bd5f c4be ded2 dd3e
000000d0: 8c45 893e 2da7 663f 6a9e d6be 8014 14bf
000000e0: e43b fc3e ffd9 ecbd bf6e a33e e5f1 643f
000000f0: 18a9 12bf fa8e cabe 77af 2bbf 8c37 e43c
00000100: 710d 89be e605 29bf 341b f8bd d0d3 0a3f
00000110: b1fd e4bd 834d e33e a200 bd3e afbc 84bd
00000120: eaa5 b9be 8e80 38be 53f1 283f 8356 56be
00000130: 0552 4b3d 4e8e b7be 96b7 f2be a4a7 893e
00000140: fa21 083f 1055 063f 167a 233f 239d b2bc
00000150: 15b9 603d 8c83 943d c35e a0bb 02cd c9be
00000160: b3da 08bf 7398 1f3f ec79 22be eaad d1be
00000170: 8c7c b1be 56ce 463f c1b9 ba3e f2a0 633e
00000180: e6b7 1dbf a346 27bd 0062 cdbe 9dfa 05be
00000190: 7bde 99bd fa81 0fbf 522c f2be 9718 c73e
000001a0: 25e6 3a3e 86e1 1a3e b138 d33e bcac e63e
000001b0: 5317 253f 1a01 b63e 7fa4 413e d4da 963d
000001c0: 0aec c7be 8f92 e83d 295d 09be 0c20 3e3f
000001d0: 849d 18be efe6 afbc 7c00 8f3e 6cb4 a6be
000001e0: 1b24 58be a6a4 f9be 1c1a a03e 028e f33d
000001f0: 3192 a23e 532c 86be c35f 47bf 812c 03be
00000200: 66d1 6e3e 0058 dfbe 307f 93bd 83e5 143e
00000210: 141a 9e3e ab1a 12be ad66 123d df9d 553f
00000220: 5d70 10be adc0 2e3e 5e3e 203f 3304 873e
00000230: b06e 443e 47a3 2bbd a096 e13e 88a2 0f3e
00000240: f718 95be 2bc9 f0bd c12f 5abe c9f3 de3e
00000250: 1dd5 1c3e 3a96 1abe 3824 a93d ab33 af3e
00000260: 28ce 1f3f ffdf 0bbf 07ad 263f 6eb1 c6bd
00000270: 886c 8fbd 1ec5 9fbe 11ba f3be 3328 1cbe
00000280: 66eb 8b3d 1fe5 95be f4e9 083f 4321 94be
00000290: 38db 23be b7b2 28bf 8984 b13e 9671 f0be
000002a0: 4e36 a83e fe7f 9e3e 2fc5 ca3e 676f 55bd
000002b0: 1bfa 243f 829b 4bbe 5ced 54be d55b 3abe
000002c0: fd3f 813d 1bed b0bf 1475 133f 1b35 013f
000002d0: f330 a8bd 1930 f03e afa5 f13e 3962 9dbe
000002e0: e035 82be 1fc5 04be 1feb 4f3e 47d3 e03e
000002f0: 057b 263e c0ec 29be ae32 573e 5f0a 6dbe
00000300: 34af 4a3f 8890 debd 085b 0abe 07e1 9e3b
00000310: 6da9 56be c81d 6e3d ede1 033f e65d 8ebd
00000320: f524 38bf 17c5 07be 2dfb 9a3d fd79 093e
00000330: 7fc1 a0bd 6aa7 abbe a4ff 68bc 7f5f b1bd
00000340: adf0 38bf 2c2f fc3d e7c2 11bd ca85 a8be
00000350: 2e89 f2be 714c 5cbd a640 ae3e eedd ce3e
00000360: bba9 5abe 8ad5 f7bc 81de 8f3e 74b4 df3e
00000370: da04 df3e 949b 913e 1257 8c3e 030a bebe
00000380: 04f3 d13e eef7 1a3e 1386 f2bd 1fd8 d63e
00000390: 00bf 0c3f 5280 e73e 180b b63e 5442 823b
000003a0: 6b6f 90bd a8d3 cf3e e057 2e3e 7647 26be
000003b0: 6474 93bc 801b 213f 7b88 4cbf c0c2 383f
000003c0: c5aa 8bbd 40c9 29bd 1ee1 4c3d 4327 9fbe
000003d0: 7b66 23bf 9c77 d8bd 2b7a 1a3e 3754 6abe
000003e0: cad6 913e 36e9 bd3d 0d2f 02bd aea3 27bd
000003f0: d636 f4be 96fc e8bd 8d36 a9bd ff6b 8a3e
-0.31063992 -0.25033775 -0.6465199 0.3540129 0.7779453 0.10982445 0.39572066 0.22579642
0.12466084 -0.2533753 0.29949787 -0.45457754 -0.4147887 0.13128228 0.034210347 -0.45617372
-0.27817005 -0.1778401 0.33277446 0.09795238 -0.15588585 -0.4661479 -0.069918625 0.47585914
0.46177104 0.1814386 0.74954414 0.29966325 -0.56489956 0.16598484 -0.07246314 -0.20077597
0.6021494 0.43954435 -0.3045693 -0.08892244 0.19359533 -0.39195493 -0.5747503 -0.17387043
-0.5714211 -0.57786095 0.23389253 0.5989636 0.26512894 -0.050949756 0.09024728 -0.1701379
0.031488467 0.058224097 -0.38354293 0.4332494 0.26810873 0.9009884 -0.41917735 -0.5784378
0.49264443 -0.11565017 0.3192043 0.894316 -0.57289267 -0.39562207 -0.67064613 0.027858518
-0.26768067 -0.66024625 -0.121145636 0.5422945 -0.111812 0.44395074 0.36914545 -0.06481301
-0.36259395 -0.1801779 0.6599323 -0.20931439 0.049638767 -0.35850757 -0.4740569 0.26885712
0.53176844 0.52473545 0.63858163 -0.021803444 0.054864008 0.07251653 -0.004894109 -0.3941422
-0.5345871 0.62341994 -0.15866822 -0.40952998 -0.34665334 0.77658594 0.36469844 0.22229365
-0.6160873 -0.04083885 -0.4011383 -0.13083883 -0.07513138 -0.56057703 -0.4729944 0.38885948
0.18251856 0.15125093 0.4125419 0.4505366 0.64488715 0.35547715 0.18910407 0.07365957
-0.3904727 0.11356079 -0.13414444 0.7426765 -0.14903837 -0.021472422 0.27930057 -0.32559526
-0.21107523 -0.4875843 0.3126992 0.1189232 0.3175216 -0.26205692 -0.77880496 -0.12809946
0.23322067 -0.43621826 -0.072019935 0.14540677 0.3087927 -0.14267986 0.03574245 0.8344402
-0.14105363 0.17065687 0.62595165 0.2637039 0.19182849 -0.04190376 0.4406023 0.14026845
-0.2912061 -0.1175712 -0.21307279 0.43545368 0.15315671 -0.1509637 0.08258861 0.34219107
0.62423944 -0.54638666 0.6510777 -0.09701811 -0.070031226 -0.31205076 -0.47602895 -0.1524971
0.06832008 -0.29276368 0.53481984 -0.28931627 -0.16001594 -0.658977 0.3467143 -0.4696166
0.3285393 0.30957025 0.39603564 -0.052108195 0.6444413 -0.1988354 -0.2079367 -0.18199094
0.06311033 -1.3822359 0.5760052 0.5047166 -0.08212461 0.46911696 0.4719672 -0.30739
-0.25431728 -0.1296582 0.20304535 0.43911192 0.16257866 -0.16594219 0.21015427 -0.23148488
0.7917359 -0.10867411 -0.13511288 0.0048486027 -0.20963068 0.05813387 0.5151661 -0.069515035
-0.7193139 -0.13258778 0.07567439 0.13425441 -0.078494065 -0.33526164 -0.014221106 -0.086607926
-0.7224224 0.12313685 -0.035586264 -0.32914573 -0.47370285 -0.053783838 0.34033698 0.40403694
-0.2135381 -0.03025319 0.28099445 0.43692362 0.4355839 0.2843901 0.2741018 -0.37117013
0.4100572 0.1513364 -0.11841979 0.41961762 0.5497894 0.45215088 0.3555534 0.003975192
-0.07052501 0.40591168 0.17025709 -0.16238198 -0.017999835 0.62932587 -0.7989575 0.72172165
-0.06819681 -0.041451693 0.050019376 -0.31084642 -0.6382825 -0.10569689 0.15085666 -0.22883688
0.28484184 0.09272997 -0.031783152 -0.04092758 -0.47698087 -0.11376302 -0.08262358 0.2703552
