results/may5/poisnpe72/half_cheetah/seed_109/weights_46.npy (npy, 1088 bytes, 1 tensors)

array f4 [240]
000000 21 c6 61 be b1 6f a9 3e 46 10 a6 bc 4e 5a 04 be
       -0.22048236 0.33093026 -0.020271432 -0.12925074
000010 e3 04 3f 3e 37 51 57 3d 83 fb be 3d 43 b9 2d 3d
       0.18654208 0.052567687 0.09325316 0.042413007
000020 8e 5d d9 3d e8 87 6c bd cb 5f a2 be fb 73 93 3e
       0.10613547 -0.057746798 -0.3171371 0.28799424
000030 d4 f1 d4 3d ba ba cc 3e 88 28 36 3e 79 e4 a1 3e
       0.103976876 0.3998621 0.17788899 0.31619623
000040 37 76 01 3d 85 d9 3e be c5 e1 6d 3e 91 b4 6f be
       0.03160688 -0.18637665 0.23230655 -0.23408724
000050 7b 48 19 3e 2b dd a9 3d fb 04 ff 3d a3 0d 46 be
       0.14969055 0.082941376 0.12452122 -0.1934114
000060 60 46 69 be bf 4c 96 3e d5 22 e3 bd ba 13 df bd
       -0.22780752 0.29355428 -0.11090628 -0.108924344
000070 69 85 a5 be a9 e0 90 3d 98 3f 14 bd 40 7e 9d be
       -0.32328346 0.070741005 -0.03619346 -0.30760384
000080 8f 1b 3a 3e 9e 10 b7 3e 70 0a 99 bc 94 2b a2 3d
       0.18174575 0.35754865 -0.018681735 0.07918468
000090 8a 18 3a be ab b6 a0 bd 72 b7 4f 3d 0e 69 c3 bd
       -0.18173423 -0.07847341 0.050712056 -0.09541522
0000a0 e0 76 19 3e 40 8c 92 bb 73 42 bb bc 3c 04 ff bb
       0.14986753 -0.0044722855 -0.022858834 -0.007782487
0000b0 48 b1 84 3e 10 5b c6 b9 d7 c3 1e be e4 e6 84 be
       0.25916505 -0.0003783335 -0.15504394 -0.25957406
0000c0 2c ca 57 3e d6 be a1 be c2 2e b4 3e 4f c0 c8 3e
       0.21073216 -0.3159091 0.35191923 0.3920922
0000d0 d0 69 e4 bc c8 af 47 3d 76 b8 11 bd d9 b4 e8 3e
       -0.027882487 0.048751622 -0.035576306 0.45450476
0000e0 b0 46 c9 bd ac 28 02 bd 9d 20 15 bd bb dc 38 3d
       -0.09827936 -0.03177707 -0.036408056 0.04513238
0000f0 70 aa 0e 3e cd 34 04 3d 4e 4d bd bd 00 3f e8 3d
       0.13932204 0.032276917 -0.0924326 0.11340141
000100 74 c1 1b be d6 a4 1e 3d 7c fa eb 3d 72 77 1c be
       -0.15210515 0.03873142 0.115223855 -0.1527994
000110 22 5b 0c 3d 52 5f 77 3e 3a b2 01 be 1d ee 17 3e
       0.0342666 0.24157456 -0.12665644 0.14836927
000120 bd 76 7c be 1d e5 d9 bd 35 7a 5d be 77 0e e6 3e
       -0.2465467 -0.10639403 -0.2162865 0.4493291
000130 77 2c 4e 3e 38 48 1c be bd a3 04 3e 69 dc af bd
       0.2013415 -0.15261924 0.12953086 -0.08586962
000140 b1 a0 22 be 87 71 71 3e 3b 6f 9d bd 95 be 3c be
       -0.15881611 0.23578463 -0.07687231 -0.18432076
000150 03 e5 87 3e c2 87 79 3d 4f 65 72 bd 58 65 4b be
       0.2654191 0.060920484 -0.059178647 -0.19862878
000160 af 46 86 bd 85 3e 56 3e ee f2 8b 3e e4 4a a1 bd
       -0.065564506 0.20922287 0.27333778 -0.078756124
000170 61 62 79 3e 9f 65 33 be b4 44 00 3f 90 3d 57 bc
       0.24353935 -0.17519234 0.5010483 -0.013137236
000180 30 60 06 bd ad 28 a7 3e e0 bf 78 3d 6b 60 01 bd
       -0.032806575 0.3264822 0.06072986 -0.031586092
000190 2e f0 8c bd a6 74 45 3c 4a 46 06 3d 59 c1 b9 be
       -0.06881748 0.012051737 0.032781877 -0.36280325
0001a0 ac 8c 0d bc e0 03 a0 3d 5c d5 b8 3c ea ae e9 3d
       -0.008639496 0.07813239 0.022562675 0.11410315
0001b0 73 66 e9 3b 01 4d 56 bd 25 d8 65 3e 0f 14 ce 3d
       0.0071228086 -0.05231953 0.22445734 0.100624196
0001c0 35 55 c3 be c8 ba e9 3d fb 0a e3 3d 58 72 43 be
       -0.38150945 0.11412579 0.11086079 -0.19086587
0001d0 bf da 8e bd 87 cc 9d be 79 7d 5e 3e 76 88 1f 3e
       -0.06975316 -0.30820104 0.21727552 0.155794
0001e0 9d ca 1f 3e 94 9e 73 bc 17 3e e2 bd 98 55 7c bd
       0.15604635 -0.014869351 -0.11046999 -0.061605066
0001f0 19 a7 db bd 03 ae 4c bc 82 38 1d bc d2 71 3a bc
       -0.10725231 -0.0124926595 -0.009595992 -0.011379676
000200 5e 66 b0 bd fd 8a 32 3d 14 df ed bd 38 64 f0 bd
       -0.08613275 0.04358958 -0.116148144 -0.11737865
000210 ce 49 7c bb 54 4c 44 be d4 68 86 be 5d 5e 3d 3d
       -0.003849614 -0.19169742 -0.26251853 0.04623257
000220 b9 2c 86 be 17 65 50 bd a4 a2 e3 bd f8 03 fa 3a
       -0.26205996 -0.050877657 -0.111150056 0.0019074669
000230 5c 49 f0 3c 6c 6b c6 bd a6 71 28 3d 48 44 f1 bc
       0.029331855 -0.09688458 0.04112401 -0.029451504
000240 82 ec ae bc a0 91 95 3d 8f b1 db bd 23 91 88 bd
       -0.02135301 0.073031664 -0.10727226 -0.06668308
000250 65 81 67 be 0d 62 fc bd 45 b3 e9 bd 34 d8 3e be
       -0.22607954 -0.12323389 -0.11411146 -0.18637162
000260 54 d8 0d 3e ad 9a 11 bd bf 4f 23 3c d2 13 14 be
       0.13852054 -0.0355479 0.009967743 -0.14460686
000270 9e c1 00 be bb 5e 99 3c 09 8a 9c bd 0e 7b 84 bd
       -0.12573859 0.018721929 -0.076435156 -0.06468783
000280 db bd 24 be 7c ae cb 3d f1 fc 94 be 34 19 c2 bb
       -0.16088049 0.0994539 -0.2909923 -0.0059234146
000290 30 13 4b bc b3 48 d0 bd fd e9 0c bd 1d 70 81 bd
       -0.012394711 -0.10170116 -0.034402836 -0.06320212
0002a0 6a 36 b7 bd 37 3a 0c be 0d ff 15 3d 42 f8 25 be
       -0.089459255 -0.13694082 0.03662019 -0.16207984
0002b0 f5 75 80 bd d9 93 c8 bd ca 5a 2b 3e 99 91 37 3e
       -0.062724985 -0.09793825 0.16733852 0.17926635
0002c0 ea 8a fd bd c6 c7 ca 3c 0c 18 38 be 42 61 57 be
       -0.123800114 0.024753463 -0.17977923 -0.21033195
0002d0 c0 42 2c 3d 3e 2b 81 bd 61 86 8f bd 15 97 b8 bd
       0.042055845 -0.06307076 -0.070080526 -0.090131916
0002e0 2c f8 07 be b1 35 ee bd db 1b 24 be 2d e3 47 be
       -0.13278264 -0.116313346 -0.16026251 -0.19520254
0002f0 53 0e 97 bd 48 2b b7 3c 46 2a b8 bd 76 a1 34 be
       -0.07375779 0.022359505 -0.08992438 -0.17639717
000300 d7 23 d8 bd 21 6a 0a be 20 87 d1 bd 20 68 83 bc
       -0.10553711 -0.13517047 -0.10230851 -0.016040862
000310 99 7b 31 be c4 91 98 bd b7 91 a9 bb b8 e3 d0 bd
       -0.17332305 -0.074496776 -0.0051748413 -0.10199684
000320 18 35 79 bc c1 8d c4 bd ed 4f 6e be 40 09 ca bb
       -0.015210412 -0.0959735 -0.23272677 -0.0061656535
000330 e0 79 13 bd 9a ef 1f 3b b6 21 0a be e2 ef 1f 3d
       -0.0360049 0.0024404288 -0.13489422 0.03904713
000340 aa c5 9f bd ba c7 a4 3d 36 d0 a0 bd d5 bd 03 be
       -0.07801373 0.08045907 -0.07852213 -0.12865384
000350 8b 2f 0d be bb 2d 16 be 8d d0 53 bd 4f 19 be bd
       -0.13787667 -0.14665882 -0.05171256 -0.09282171
000360 31 45 35 bd 6f 9c 5c bc c0 08 0a bd f9 ed 18 3e
       -0.04425544 -0.013465031 -0.03369975 0.1493453
000370 bc b9 31 bc c3 d2 58 be c0 bc bb bb f6 d6 38 bd
       -0.010847505 -0.21174149 -0.005729288 -0.045126878
000380 49 f9 00 bc b5 a9 17 be f4 75 22 be cb de 31 be
       -0.007871934 -0.14810832 -0.15865308 -0.17370145
000390 2e 8c 88 be a6 ec b5 bd ab 49 07 be a0 66 57 be
       -0.2666945 -0.08883028 -0.13211696 -0.21035242
0003a0 07 68 eb 3d 1c 7a 3c bd 87 40 bc bd c6 6b 7a bd
       0.11494451 -0.04601489 -0.09191995 -0.061137937
0003b0 7b 58 08 be 04 53 8c be 6c 22 fa bd ba 7e 0f be
       -0.13315003 -0.27407086 -0.12213597 -0.14013186
