results/trpo/old/18_04_06_454/weights_307.npy (npy, 19552 bytes, 1 tensors)

array f4 [4868]
00000000: 541d 823e 5397 bebe ba2b 2fbc e900 e83e
00000010: d565 2dbe 2a4a 07bf 6b6c 54be f4be 46be
00000020: 3eaf 2bbf 9571 513e 79be 283e fae4 873e
00000030: 454b 49be ed30 7e3d 1c32 013d 6cde a1bc
00000040: bff6 bebd b2bf 103f 611e b6be 05b1 22be
00000050: d278 35bf e132 183f fc5d 36bf 3463 173f
00000060: 363d f6bd 9655 11be b2d4 89bd 309a f33e
00000070: 8275 083f a8b8 923e 6e97 b23e e2fe cd3e
00000080: f59f 953e d2eb 79bd 107f 1f3f 9527 263e
00000090: f86c acbc 0152 08bf 8ae4 133f 7ea5 bebe
000000a0: acd6 07bf bc09 d33e c86d 9ebe 7bc4 dbbe
000000b0: 6c4e 343f 9f5c cbbe 7e10 043e 7c87 a93d
000000c0: 2240 e13d a2a6 5cbd 26e0 d33d ab66 c13e
000000d0: 7528 3fbf 44b6 0e3f 6cc8 d2bd 1ad5 4ebf
000000e0: 07ad bf3e c0b2 d53e aa9a aabe 7b06 50bd
000000f0: 4079 bf3e 115d 9d3e eb1f cabe a925 b8be
00000100: 4deb ff3c c89a 6a3e 0bd2 10bf ea24 a8be
00000110: 3952 35be 13eb ca3c 1d3c d1be 0e31 bdbd
00000120: 4edb 30be 07f2 763d 373d e8be 6b30 e4be
00000130: 05d5 b53d 9772 96bd d07b 793e 2e03 bb3d
00000140: 6fee babe dafb eb3e 75f9 c43e 5a01 233f
00000150: eb14 debd 4227 2d3f d8fe 243d f046 253f
00000160: d7e3 0a3f 9014 193f 5e6a 17be 8ca0 aabc
00000170: 0347 993e 1e38 c0bd ba9a 6ebe 4104 6dbe
00000180: 8b3e 20bf c973 1bbf 9a0b 3d3d a122 48bf
00000190: 80b9 f93e 9eda 203e 134f a9be 3ca0 00bf
000001a0: 742a 8a3e c590 d53e 37f5 f23e 105a 8f3d
000001b0: 5c26 c4be b30a 42bf bd3e a3be 3568 07be
000001c0: d4f5 57be d0dd 153d 80e1 183e c120 893e
000001d0: c491 a8be e1c8 b93e 4e61 a9be 020e 143f
000001e0: 9e21 b63e f797 193f 7d0c 3abe 1e42 01bf
000001f0: e8e4 d83c f1d2 09bf a038 253d e73b 14bf
00000200: 9632 f33e c5a4 13bf 4f06 2dbf 06f2 ebbd
00000210: 2d92 38bf 4822 8b3e a95f 163c 67dd adbd
00000220: 1ae1 0b3f d62a 1a3f 04d3 c33e 8945 3d3e
00000230: 5564 a23e 51d9 2dbe a1a1 3aba a28a 0fbf
00000240: 5d4f ea3d cf3b 383e f4dc beb9 f959 f63e
00000250: e551 67be 3fbe c03e d143 c33d 8fce 9dbe
00000260: 27f7 20be 772e c73e 5cd6 61bf 9869 03bf
00000270: 1dd6 2fbe 131f b33e 9d1d 1f3f adf0 503e
00000280: 259a 43be 0733 0fbf 8991 423e a4e7 063e
00000290: 610b a53e b483 013f 811e 3c3e b041 9e3e
000002a0: e856 cdbe 9abe 403f 9698 5bbf baf1 97be
000002b0: 6869 15ba 7a80 ab3e 4da8 dd3e 9f00 e1be
000002c0: a5ff abbc 7aff 89be 918c 493e 24e8 a43e
000002d0: 714e 413e 821c 173f 351c 113e 8cec 28be
000002e0: 31c9 513f 3980 3c3e 2177 a7be eacc 143e
000002f0: 7626 1b3e d096 953f e83f e7be bd70 433f
00000300: 2c9f d3bd 4712 243d b043 18be 3ce9 f23e
00000310: 93fa 2fbf 152a 39be eb4b 8a3e 1818 2ebf
00000320: 4230 eb3c e88f b5bd 91f6 303d 36d6 acbe
00000330: 186b b4be 3924 f13e c0e0 033d b9e4 163d
00000340: 8ef6 02be 91f6 3fbe 2d51 aa3c 7cf1 a93d
00000350: 0928 17be 4866 1dbe 0087 313e b05e b8bd
00000360: af4d bf3e 0295 1fbd 3744 07bf 67f2 9dbe
00000370: 081a 913e eb6b 4e3e dd3f a63e b26d babe
00000380: d61b 34be 9964 bb3d eefe c83e 7902 dfbe
00000390: 8ab8 acbe 9c33 153d 427f 18bf 6676 833d
000003a0: b987 2bbf f739 3e3e c583 a1bd 2543 e8be
000003b0: f962 8ebd 03fb 68be 27b6 0bbf 3b01 213f
000003c0: 34e1 07bf b530 09bf ecb7 7d3d 31ac b8be
000003d0: 7957 843e 139b dfbc da37 103f acc7 f6be
000003e0: 9296 f9bc 83dc 0a3e 22e3 36bf a902 3ebe
000003f0: a280 07bc 441d 1dbe 9ef0 053e 43ae 2bbd
0.25413 -0.37224826 -0.010691578 0.45313194 -0.16933377 -0.5284754 -0.20744483 -0.1940878
-0.67064273 0.20453484 0.1647891 0.26541883 -0.1965762 0.062058378 0.03154193 -0.01975938
-0.09324407 0.56542504 -0.35570052 -0.1588784 -0.7088748 0.59452635 -0.7123716 0.59135747
-0.12023394 -0.14192805 -0.067300215 0.47578573 0.533043 0.28656507 0.34881157 0.40233523
0.292236 -0.06101591 0.62303257 0.16226037 -0.021048054 -0.5325013 0.577706 -0.37235636
-0.5306194 0.41218364 -0.3094313 -0.4292334 0.7043216 -0.39719102 0.12896916 0.08277795
0.109985605 -0.05386985 0.10345487 0.37773642 -0.7467111 0.55746865 -0.10292134 -0.8079392
0.37436697 0.41737938 -0.33321124 -0.05078743 0.37397194 0.30735067 -0.39477476 -0.35966232
0.03124013 0.22910607 -0.565705 -0.32840663 -0.17707147 0.024770295 -0.40866175 -0.09237872
-0.17271158 0.06028941 -0.45359203 -0.4456819 0.08878521 -0.07346075 0.24363637 0.09131466
-0.36510035 0.46090585 0.3847157 0.6367394 -0.108438335 0.6763803 0.0402821 0.6456137
0.54253906 0.59797 -0.1478667 -0.020828508 0.2993699 -0.093857035 -0.23301211 -0.23146154
-0.62595433 -0.6072355 0.046153642 -0.7817784 0.48774338 0.15708396 -0.3306814 -0.502445
0.26985514 0.41712013 0.4745271 0.069996 -0.38310516 -0.75797576 -0.31883803 -0.13223346
-0.2108987 0.03658849 0.14929771 0.26782802 -0.3292371 0.3628607 -0.3308205 0.57833874
0.35572523 0.59997505 -0.18168826 -0.5049151 0.026476339 -0.53837496 0.040337205 -0.57903904
0.47499532 -0.57673293 -0.6758775 -0.11520772 -0.72098047 0.27174592 0.009178081 -0.08489495
0.5464035 0.6022161 0.3824693 0.18483557 0.31717172 -0.16977431 -0.00071194215 -0.5607091
0.114409186 0.17991565 -0.00036404247 0.4811552 -0.22589834 0.37645146 0.09534419 -0.30821654
-0.15719281 0.38902637 -0.8821771 -0.51333 -0.17171521 0.34984645 0.6215456 0.2040431
-0.1910177 -0.55937237 0.1900083 0.13174301 0.32235244 0.5059159 0.18371011 0.3090949
-0.40105367 0.75290835 -0.857797 -0.2967661 -0.00056996057 0.33496457 0.43292466 -0.43945786
-0.020995924 -0.26952726 0.19682528 0.3220836 0.1887758 0.59027874 0.14170916 -0.16496485
0.8194762 0.18408288 -0.32708076 0.14531294 0.1515139 1.1686649 -0.45165944 0.763439
-0.10333094 0.040056493 -0.1486957 0.4744357 -0.6874172 -0.1808246 0.27011046 -0.68005514
0.028709535 -0.088653386 0.043203894 -0.3375718 -0.35237956 0.47097948 0.03219676 0.03683922
-0.12789366 -0.18746401 0.02079066 0.082980126 -0.14761366 -0.15371048 0.17336655 -0.09002435
0.37363955 -0.038960464 -0.5283846 -0.30849 0.28340173 0.20158355 0.324706 -0.36411816
-0.17588744 0.09150047 0.39256996 -0.43556574 -0.33734542 0.03642617 -0.5956918 0.06419067
-0.6700397 0.185768 -0.07886461 -0.45363727 -0.06952471 -0.22752003 -0.5457482 0.628925
-0.5307801 -0.53589946 0.06194298 -0.36068872 0.25847986 -0.027295625 0.5633522 -0.48199213
-0.030467305 0.13560681 -0.7144033 -0.18555702 -0.008270415 -0.15343195 0.1308007 -0.041914236
