results/tuning_network/delta_01/multipoisnpe/bound_6/cartpole_rllab/seed_109/weights_405.npy (npy, 54936 bytes, 1 tensors)

array f4 [13702]
0	0x3fa5ed3d	1.2963024
1	0xc119ea6e	-9.619734
2	0x3e417a16	0.18894228
3	0x3dd5c009	0.104370184
4	0xbfd171e6	-1.6362884
5	0x4031d074	2.778348
6	0x3ff95b67	1.9481019
7	0xc01799ad	-2.3687546
8	0xbe7c7057	-0.24652229
9	0x3f583251	0.84451777
10	0xbf445d9a	-0.76705325
11	0xbf9419e2	-1.1570399
12	0x4061ee46	3.530168
13	0xbee22c59	-0.4417446
14	0x3e2ac058	0.16674936
15	0x3fc5efe5	1.5463835
16	0x3e8def4a	0.27721626
17	0xbf7cbe67	-0.9872803
18	0x3f670dc3	0.90255374
19	0xbea40b8c	-0.3204006
20	0x3e0b79f4	0.1362074
21	0xbf8d034c	-1.1016631
22	0xbdb88f21	-0.09011675
23	0xbf1ebb5e	-0.6200465
24	0xbe8fc3a8	-0.2807896
25	0xbe60da0b	-0.21958177
26	0x3f1a9327	0.60380787
27	0x3e588a30	0.21146464
28	0xbf373631	-0.71567065
29	0xbeae214e	-0.34009784
30	0x3df79979	0.120898195
31	0x3f343385	0.7039111
32	0xc1430a66	-12.190039
33	0x401b80af	2.4297292
34	0x3e7750e3	0.2415195
35	0x3fa9910e	1.3247392
36	0xc077e9d5	-3.873647
37	0x3fac5c2f	1.3465632
38	0xbe7dfa49	-0.24802507
39	0xbebe3732	-0.37151486
40	0x3f24e738	0.6441531
41	0xbf759c0f	-0.9594125
42	0x3fbb3f2b	1.4628652
43	0xbf060e4c	-0.52365565
44	0x3f45e7c7	0.7730679
45	0x3f710482	0.94147503
46	0x3dc466b3	0.09589901
47	0x3f10ced5	0.565656
48	0x3f59ea05	0.8512271
49	0xc0762d0b	-3.8464992
50	0x3f1f2086	0.62159
51	0x3fe93985	1.8220679
52	0x3f88f73a	1.0700448
53	0xbe5c26df	-0.21499203
54	0xbf1e4d0f	-0.6183633
55	0x3d46af2e	0.048506908
56	0xbf1888bd	-0.59583646
57	0xbe5e90a6	-0.21734866
58	0x3f527f58	0.8222556
59	0x40bf9dd2	5.988015
60	0xbfe7aac8	-1.8098993
61	0x3debc5f2	0.115123644
62	0xbf685419	-0.9075332
63	0x3f6b8b74	0.92009664
64	0x3fa185d8	1.2618971
65	0x404af469	3.1711676
66	0xbf24ac51	-0.64325434
67	0xbf1be07d	-0.60889417
68	0xbea835e8	-0.32853627
69	0xbf016826	-0.5054954
70	0x3f5656e4	0.83726335
71	0xbe9f8a49	-0.3116019
72	0xbeb3df27	-0.3513119
73	0xbf76b92e	-0.9637631
74	0x3ff6ef6e	1.9291818
75	0x3f8fe262	1.1240962
76	0xbf184876	-0.59485567
77	0x3e174140	0.14770985
78	0xbf3d09fc	-0.7384336
79	0xbf1fc739	-0.62413365
80	0x3f929cb4	1.1454072
81	0x3e2ca9ec	0.16861695
82	0xbd83b27a	-0.06430526
83	0xbf77971a	-0.9671494
84	0x3fa5041b	1.2891878
85	0x3f9611bc	1.1724162
86	0xbdff811c	-0.124757975
87	0x3f282489	0.6568075
88	0x401e8abf	2.4772184
89	0x3f2885b2	0.65829
90	0xbf27a613	-0.65487784
91	0xbfebf625	-1.8434492
92	0xbd2be428	-0.041965634
93	0x3e25e5af	0.16200899
94	0xbfeacec8	-1.8344355
95	0xbf379019	-0.7170425
96	0x3e77ed8c	0.2421171
97	0xbee65718	-0.44988322
98	0xbe3e564d	-0.18587609
99	0x3f9c3a99	1.2205383
100	0x40321ed9	2.7831328
101	0x3f1d1c2b	0.61371106
102	0xbf71af4e	-0.9440812
103	0xbf3aca4f	-0.7296495
104	0x3db40734	0.087904364
105	0x3f748e43	0.95529574
106	0x40ae8351	5.45353
107	0xc00dcdcc	-2.2156858
108	0x3fbf4426	1.4942672
109	0x405f502e	3.4892688
110	0x3f2bbd03	0.67085284
111	0x3f594047	0.84863704
112	0xbfc2f554	-1.5231118
113	0x3eb23534	0.34806216
114	0x3f730f6c	0.94945407
115	0x3f34f7b3	0.7069046
116	0xc00fe59b	-2.248389
117	0xbd7c4d3e	-0.0615971
118	0x3eba3ae3	0.36373052
119	0x3e28e0e2	0.16492036
120	0xbf1604bf	-0.5860099
121	0xbf8db6c0	-1.1071396
122	0xc006e8ae	-2.1079516
123	0x3f7e5138	0.9934268
124	0xbf81e5a4	-1.0148206
125	0xbf95ccdd	-1.1703144
126	0xbf80810b	-1.0039381
127	0x3fcbdc04	1.5926518
128	0x3e35b997	0.17746578
129	0xbed48a04	-0.41511548
130	0x3e765b12	0.24058178
131	0x3e8586da	0.26079446
132	0xbf9acbcf	-1.2093447
133	0x3e92335c	0.2855481
134	0x3d51d199	0.05122528
135	0x3f0bb572	0.5457374
136	0x3e8c4895	0.27399126
137	0xbfb05565	-1.377606
138	0x3f435ffa	0.76318324
139	0x3e2420c2	0.16028121
140	0xbfbbea6f	-1.4680918
141	0x3df94b51	0.121725686
142	0xbfd4c487	-1.6622475
143	0xc0196c30	-2.3972282
144	0x3e298cff	0.16557692
145	0x40a2dcba	5.089444
146	0x3ed21723	0.41033277
147	0x3f8c0193	1.093798
148	0xc0f146e6	-7.5399046
149	0xbec9f9da	-0.39448434
150	0xbf7079a1	-0.9393559
151	0xbe227619	-0.15865363
152	0xbf63af8a	-0.88939726
153	0x3f6dd0c9	0.92896706
154	0xbf889ea6	-1.0673416
155	0x3f78ef8b	0.97240514
156	0x3e3199b8	0.17343795
157	0xbfa0e1e9	-1.2568942
158	0xbf744fc2	-0.954342
159	0xbf6485f4	-0.89266896
160	0xbf5d77ae	-0.8651074
161	0xbfb6cd17	-1.4281338
162	0xbded1a3a	-0.11577268
163	0xbf380290	-0.7187891
164	0xbf6f600b	-0.93505925
165	0x4018a86a	2.3852792
166	0xbe644142	-0.22290519
167	0xbf3d194d	-0.7386673
168	0x3eab0b5d	0.33407107
169	0xbd94d0f0	-0.07266414
170	0xbf4d5c44	-0.8021891
171	0xbfb1ca7a	-1.3889916
172	0x3f5faf1e	0.8737658
173	0xbf9b2ef8	-1.2123709
174	0xbd6f1170	-0.05836624
175	0x406b924e	3.6808047
176	0xbf330ebe	-0.6994437
177	0xbf3448f4	-0.7042382
178	0x40389d0b	2.8845851
179	0x3db6d3e5	0.089271344
180	0x3db87ee4	0.090085775
181	0x3fd892a7	1.6919755
182	0xbf571436	-0.84015214
183	0x3eed7a67	0.46382448
184	0xbf9dc7ab	-1.2326559
185	0xbf7b8601	-0.9825135
186	0x3f4064a9	0.75153595
187	0xbfc26d37	-1.518958
188	0x3e755ffa	0.23962393
189	0x3f2c28f4	0.6724999
190	0x412ae8fc	10.681881
191	0xbfd8e61c	-1.6945224
192	0xbe8db4e3	-0.27677068
193	0xbf269e55	-0.65085346
194	0x3eeda006	0.4641115
195	0xbefd7e5c	-0.49510467
196	0xbe63a683	-0.22231488
197	0xbf91e43a	-1.1397774
198	0xbeaaffdf	-0.3339834
199	0x3ef732c2	0.48280913
200	0x3f3676b1	0.7127486
201	0xbf40c395	-0.75298434
202	0x3f074ebf	0.5285453
203	0x400f21b2	2.2364316
204	0xbf9f9533	-1.2467407
205	0xbe3aaca4	-0.1822992
206	0xbfd50647	-1.6642541
207	0x3fad59ec	1.3543067
208	0xbe9a9c43	-0.30197343
209	0x3f18a2dc	0.59623504
210	0x407d1a51	3.9547312
211	0x400d6f3b	2.209914
212	0xbfee676e	-1.8625314
213	0x402b1e46	2.6737227
214	0x3f51b360	0.8191433
215	0xc091ed05	-4.560183
216	0x401fd2f5	2.4972508
217	0x3f8c1e42	1.0946734
218	0xbfa8e744	-1.3195577
219	0xc041c4c2	-3.0276341
220	0x3f5d699c	0.8648927
221	0x3fcb6352	1.5889685
222	0x3f319eea	0.6938311
223	0x3eca2cab	0.39487204
224	0x40be0bb7	5.93893
225	0xbf32eee0	-0.69895744
226	0xc15119a1	-13.068757
227	0x3fca534c	1.580667
228	0x3f1614a8	0.5862527
229	0xbfb997f6	-1.44995
230	0x40395def	2.8963583
231	0xc07dd6ec	-3.9662428
232	0x3d2efc17	0.04272088
233	0xbfd2e920	-1.6477394
234	0xc04d3470	-3.2063255
235	0x3e5180bf	0.20459269
236	0x3f9774aa	1.1832478
237	0x40183e20	2.3787918
238	0xbf3ad161	-0.72975737
239	0x408dc8f2	4.4307795
240	0x401a0537	2.4065683
241	0x40a8b6bc	5.2723064
242	0xc046fd13	-3.1091964
243	0x3f56dc63	0.83930033
244	0xbf8bf091	-1.093279
245	0x3e9d0777	0.30669758
246	0xbebef9b2	-0.37299877
247	0x3f8e96b2	1.1139739
248	0xc00d08cb	-2.2036617
249	0x3ffa12be	1.953697
250	0x3fcd96aa	1.6061604
251	0xbfc87aa2	-1.5662425
252	0xbf8227ba	-1.0168374
253	0x3f24ddbe	0.6440085
254	0x3e941654	0.28923285
255	0xbf80f915	-1.0076014
