results/tuning_network/delta_01/multipoisnpe/bound_6/cartpole_rllab/seed_109/weights_150.npy (npy, 54936 bytes, 1 tensors)

array f4 [13702]
0.07439915 0.17315684 -0.09669444 0.17342572 -0.29249898 0.009943954 -0.27098155 -0.13713759
-0.15256175 0.75418913 0.4018667 0.34243307 0.38663703 0.24456573 -0.08266987 0.31995526
-0.20783478 0.048954673 -0.1186066 0.23807576 0.114657275 -0.38092542 0.04595966 0.0955853
0.07659951 0.06312278 -0.016820157 0.15564096 -0.5109007 0.30102196 0.10466158 0.10017985
0.5149344 0.18092446 -0.2439189 0.14199857 -0.74277574 -0.13352317 0.14812647 -0.21610695
0.21057408 -0.1413954 0.24277297 -0.00043813649 -0.13498099 -0.15421711 0.3091614 0.12593366
-0.11722347 -0.47131297 0.4737937 0.113319814 0.19762516 -0.2570659 -0.021735694 0.036430366
-0.22427228 0.16945441 -0.24404451 0.40821147 -0.3823787 -0.058831308 -0.6494341 0.47709915
0.33784077 -0.19774629 0.08343248 0.08687269 0.049032796 0.042034496 -0.23612498 -0.15333763
0.09358692 -0.51971304 0.63475186 0.3014204 -0.38514403 -0.014693267 0.9455085 -0.051332913
0.4371492 -0.08582255 -0.059712775 -0.6644982 -0.08884112 0.712958 -0.24111876 0.105997905
-0.66309047 -0.02074502 -0.16613366 -0.036250893 -0.19337584 0.7276087 0.2083082 0.17857789
0.4378857 -0.044632148 0.020846397 0.2771884 -0.11367629 0.029722406 -0.39802057 -0.030234579
0.027577866 -0.15286502 -0.51707023 -0.06917847 -0.30966213 -0.4750174 0.056543708 0.19728146
-0.085973315 0.025375998 0.119037606 -0.9733904 0.14248544 -0.038931757 -0.34642485 -0.11710209
-0.1165866 0.04236846 -0.0027926927 0.27810636 -0.24729188 -0.56063956 -0.13806815 0.5795402
-0.10356333 -0.63096744 0.10076744 -0.10383038 -0.27745914 0.027743986 0.044853568 0.4690492
0.40328267 0.2106426 0.03911286 -0.1013792 -0.17846026 0.060279 0.34896997 -0.0683532
-0.4165281 0.4471336 -0.061391447 -0.12576996 -0.07248314 -0.048105534 0.1365979 -0.0045838603
-0.23920305 0.33228526 -0.47450006 0.2592413 0.3600002 0.24836732 -0.18298282 0.089365885
0.388305 -0.117524244 -0.015240932 0.09351128 0.18444334 -0.14485383 0.038606085 0.1449342
0.23937798 -0.1226887 -0.6568495 0.03684732 0.07623181 0.3665098 0.25961182 -0.029474515
-0.16080345 -0.031795833 -0.4241448 -0.38044807 0.089448035 0.11088459 -1.0925481 -0.32136473
-0.6524321 -0.4761723 0.23884934 -0.14196004 -0.5485405 0.14240454 0.11663048 0.2716894
0.43704206 -0.2361416 -0.06338611 0.051719114 0.2916671 -0.22996894 -0.062002122 -0.23602289
-0.56103283 -0.12777258 0.62692815 0.34913042 0.10859943 -0.2905863 -0.61704606 -0.21333295
0.02148995 -0.11185991 0.12310155 -0.21018833 -0.34521303 -0.038775675 0.08501863 0.31410214
-0.29625586 0.30700493 0.0283065 -0.42239785 0.45286432 -0.4393833 1.0771916 0.19272639
0.6324349 -0.48550642 0.20224966 0.2214639 -0.4358011 -0.3828377 0.5088778 -0.4091703
0.0075034583 -0.02568754 0.40957865 0.051567294 -0.3556895 0.05921245 -0.54825735 0.4135195
-0.34449768 0.14585356 -0.4941769 -0.02746139 0.1373535 -0.455015 0.18054119 0.015778832
-0.44110236 0.4835759 0.2645661 -0.032889534 0.10201145 0.26915866 -0.013355373 -0.11128155
00000000: 955e 983d 0750 313e bc07 c6bd 8396 313e
00000010: 6dc2 95be f7eb 223c 18be 8abe cc6d 0cbe
00000020: 2639 1cbe 8a12 413f 79c1 cd3e 6353 af3e
00000030: 4af5 c53e 706f 7a3e d24e a9bd 2dd1 a33e
00000040: a4d2 54be b284 483d 04e8 f2bd 22ca 733e
00000050: 6fd1 ea3d a808 c3be 3240 3c3d 3ac2 c33d
00000060: 34e0 9c3d 8446 813d 6dca 89bc 5860 1f3e
00000070: 63ca 02bf 8d1f 9a3e cf58 d63d 182b cd3d
00000080: bed2 033f 4344 393e e0c5 79be 1368 113e
00000090: 8d26 3ebf 4cba 08be 77ae 173e 244b 5dbe
000000a0: bba0 573e f5c9 10be 7a99 783e afb5 e5b9
000000b0: 7538 0abe 17eb 1dbe 674a 9e3e c1f4 003e
000000c0: dc12 f0bd ef4f f1be 1695 f23e 3814 e83d
000000d0: 405e 4a3e 249e 83be 0e0f b2bc 0238 153d
000000e0: a2a7 65be 7585 2d3e cee6 79be 1801 d13e
000000f0: 24c7 c3be 19f9 70bd 5041 26bf 5746 f43e
00000100: 77f9 ac3e 017e 4abe a6de aa3d 4fea b13d
00000110: 9dd6 483d 5d2c 2c3d bfca 71be 8a04 1dbe
00000120: 80aa bf3d ea0b 05bf 197f 223f c653 9a3e
00000130: 9931 c5be 07bc 70bc d80c 723f 7642 52bd
00000140: 05d2 df3e bcc3 afbd 6295 74bd 8e1c 2abf
00000150: 55f2 b5bd 6a84 363f d6e7 76be 6e15 d93d
00000160: 4cc0 29bf 76f1 a9bc f11e 2abe d17b 14bd
00000170: 5104 46be 9044 3a3f bf4e 553e 1fdd 363e
00000180: 8e32 e03e 33d0 36bd 10c6 aa3c a3eb 8d3e
00000190: 1dcf e8bd 677c f33c 5ac9 cbbe 82ae f7bc
000001a0: faea e13c a688 1cbe b75e 04bf 71ad 8dbd
000001b0: 098c 9ebe 7b35 f3be 609a 673d 2704 4a3e
000001c0: c712 b0bd 53e1 cf3c fdc9 f33d 1d30 79bf
000001d0: b4e7 113e e876 1fbd 995e b1be 38d3 efbd
000001e0: f5c4 eebd 8d8a 2d3d 9c05 37bb f563 8e3e
000001f0: 153a 7dbe 1386 0fbf bd61 0dbe bf5c 143f
00000200: 0319 d4bd 1587 21bf 295f ce3d 06a5 d4bd
00000210: 200f 8ebe 5b47 e33c 60b8 373d 3727 f03e
00000220: 117b ce3e b2b2 573e ce34 203d e69f cfbd
00000230: 49be 36be 1de7 763d 31ac b23e c3fc 8bbd
00000240: 2c43 d5be b2ee e43e 9975 7bbd d7c9 00be
00000250: 0a72 94bd 4f0a 45bd 52e0 0b3e 3534 96bb
00000260: a5f1 74be 4b21 aa3e acf1 f2be 47bb 843e
00000270: f251 b83e 0154 7e3e d95f 3bbe 7605 b73d
00000280: eacf c63e 8db0 f0bd 1ab5 79bc d882 bf3d
00000290: b7de 3c3e 9054 14be 6a21 1e3d a269 143e
000002a0: 801f 753e 3744 fbbd 4a27 28bf 37ed 163d
000002b0: 6c1f 9c3d 2ca7 bb3e d7eb 843e 8a74 f1bc
000002c0: a9a9 24be 593c 02bd 8229 d9be 17ca c2be
000002d0: 8830 b73d 7617 e33d 9ed8 8bbf eb89 a4be
000002e0: ca05 27bf dbcc f3be ec94 743e f95d 11be
000002f0: 266d 0cbf 7fd2 113e f6db ee3d df1a 8b3e
00000300: fac3 df3e 1bcf 71be 94d0 81bd 6cd7 533d
00000310: 6455 953e fa7c 6bbe f0f5 7dbd fcaf 71be
00000320: d99f 0fbf d1d6 02be 5d7e 203f 39c1 b23e
00000330: 6169 de3d bac7 94be bbf6 1dbf f473 5abe
00000340: b10b b03c cf16 e5bd aa1c fc3d 9c3b 57be
00000350: c3bf b0be 3ed3 1ebd 3f1e ae3d ffd1 a03e
00000360: d9ae 97be c02f 9d3e 08e3 e73c 8844 d8be
00000370: d5dd e73e d9f6 e0be 6ae1 893f 115a 453e
00000380: 41e7 213f 4c94 f8be 891a 4f3e 6fc7 623e
00000390: 5221 dfbe 4e03 c4be d145 023f c57e d1be
000003a0: 92df f53b ad6e d2bc 4bb4 d13e 3a38 533d
000003b0: ef1c b6be c188 723d 985a 0cbf d4b8 d33e
000003c0: 0062 b0be a35a 153e c104 fdbe b5f6 e0bc
000003d0: 65a6 0c3e baf7 e8be cadf 383e 9c42 813c
000003e0: 2bd8 e1be 4397 f73e 3575 873e 2db7 06bd
000003f0: 61eb d03d 2acf 893e 7fd0 5abc 95e7 e3bd
